models/DQN_basic.pth (torch, 7488 bytes, 4 tensors)

fc1.weight f4 [64, 13]
000000 1f e9 78 bf f7 0f fe bd b2 ff c7 3e e2 20 03 3f
       -0.97230715 -0.12405389 0.39062268 0.5122205
000010 6c ae 91 be 32 11 34 bd 87 33 44 3e 6f 19 77 3d
       -0.28453386 -0.04396171 0.19160281 0.06032699
000020 c1 a7 14 be c8 5f b5 3c 94 dd c4 be 3d cd e9 3d
       -0.14517118 0.022140399 -0.384503 0.11416099
000030 58 b5 7f be df cd 83 bf d8 e0 69 3e 00 7a 54 3e
       -0.24971521 -1.0297202 0.22839677 0.20749664
000040 24 67 b8 3e c4 9d 32 3e 0e d6 4b 3e 2e c9 76 3b
       0.3601619 0.17442995 0.19905874 0.0037656534
000050 ff 4b 97 3d f3 1f 86 3c 97 76 6f 3d d4 49 35 3c
       0.07387542 0.016372656 0.058462705 0.011064965
000060 a9 c4 06 bd 08 e5 14 bd 2f 79 66 bf 58 cb c2 3d
       -0.032902393 -0.036351234 -0.9002866 0.09511441
000070 d1 9a a0 3d 89 18 00 3f 5d 6b 11 be 4e 85 97 bc
       0.07842029 0.5003744 -0.14201112 -0.018496182
000080 60 06 6c be ed b6 7b 3c c8 f1 2d be 7e f7 fa 3d
       -0.23049307 0.015363437 -0.16986763 0.12254237
000090 31 75 1b 3e 0f 92 5d 3d 8a 33 fc bd 8d b6 82 bf
       0.15181424 0.05409437 -0.12314518 -1.021196
0000a0 bb 90 18 3e d1 f1 67 3d 9f c6 03 be a1 30 da 3d
       0.1489896 0.0566271 -0.12868737 0.106538065
0000b0 7a 12 24 be 38 71 52 3e c2 fc 84 3c 82 94 1c bd
       -0.16022673 0.20551002 0.016233806 -0.038227566
0000c0 3b 73 64 3e 9f 43 a4 3d 68 6e 8e 3e e1 3e 3b 3e
       0.22309582 0.0802071 0.27818608 0.18285705
0000d0 90 3f 96 bf 46 c6 c3 3d f6 4f ce 3e 82 eb 9f be
       -1.1738148 0.09559302 0.4029538 -0.31234366
0000e0 ed 47 e9 3d ae 46 56 3e 4e bd 0b be 06 7e 00 3d
       0.11390672 0.209254 -0.13646433 0.031370185
0000f0 56 dd 14 bc 77 f2 72 3b 32 02 bb bd f6 d8 1a be
       -0.009085974 0.003707079 -0.09131278 -0.15121827
000100 69 0f 7b 3e 90 95 64 bf ee 70 40 be 7d d9 b3 be
       0.24517597 -0.89290714 -0.1879308 -0.35126868
000110 bf cf ca 3e 19 24 04 bd 0a d1 dc bd cb b4 0b 3e
       0.39611623 -0.032260988 -0.107820585 0.13643186
000120 b5 b4 76 bd 61 75 83 3d eb 29 4f 3e a5 8c 81 3e
       -0.06023093 0.064188726 0.20230834 0.25302616
000130 32 73 1f bd d7 52 fc bc 3f 38 61 bf fb 5e e6 bd
       -0.03892822 -0.03080122 -0.8797645 -0.11248585
000140 75 57 1a 3f 42 10 b8 3e e2 f8 9b 3d c0 9c d3 bc
       0.602897 0.35949904 0.0761583 -0.02583158
000150 7f f0 c1 bd 9d 35 ac bb 99 9e a4 bd 47 aa 58 be
       -0.09469699 -0.0052554146 -0.080380626 -0.21158706
000160 8e 3a 44 bd 63 10 54 3e 15 2d 5b be 76 3a 52 bf
       -0.047907405 0.20709376 -0.21403916 -0.82120454
000170 3b 2e e3 3d 3f b0 03 3e 8c 31 ce be d1 06 de 3d
       0.11092802 0.12860201 -0.40272176 0.10841144
000180 94 30 08 3e 4e cc c3 bc e7 99 81 be 54 fc 17 3c
       0.13299781 -0.023901131 -0.2531273 0.009276468
000190 04 22 42 3d 70 b7 28 3e b9 39 85 be 87 27 6f 3d
       0.04739572 0.16476226 -0.260206 0.058387306
0001a0 90 8f 5e bf 43 58 b5 3a d6 aa 92 be af b4 af bd
       -0.8693781 0.0013835508 -0.28645962 -0.085793845
0001b0 76 8c 7c bd c0 ee 75 bd 43 83 d3 3d 4c 65 d5 bd
       -0.06165739 -0.060042143 0.103277706 -0.104197115
0001c0 53 7a cf 3d a9 86 1e 3e 22 26 de be 15 1c aa 3c
       0.10130753 0.15481056 -0.43388468 0.020765344
0001d0 98 84 40 be dd 11 5d bf c5 90 2c be a9 8d 39 3e
       -0.1880058 -0.8635538 -0.168521 0.18120445
0001e0 a6 ab 15 3f c7 3c f0 bc 6e 7b 98 be ab dc 03 3e
       0.5846504 -0.029325856 -0.2978167 0.12877147
0001f0 10 d4 03 be c4 eb f9 bd ea ca b5 bd 79 b0 89 3d
       -0.12873864 -0.12203172 -0.088765934 0.067231126
000200 6e 66 92 3e e0 43 da 3d e1 b8 81 3f 88 d8 a5 be
       0.28593773 0.106574774 1.0134546 -0.32391763
000210 1c 04 45 be 92 c1 81 3e df 2e 44 be ab a5 0e be
       -0.19239849 0.25342995 -0.19158505 -0.13930385
000220 f7 e2 51 bd fc 95 04 be 7b f5 40 be 78 dd 89 3c
       -0.05124184 -0.1294784 -0.18843643 0.016829237
000230 31 d1 0a be 64 73 14 3d 8d f8 bb be 63 65 84 3f
       -0.13556363 0.036242858 -0.36713067 1.0343441
000240 b7 09 6a 3e e6 9c 8c be 19 09 87 be 3d 14 73 3e
       0.22855268 -0.27463454 -0.26374128 0.23738189
000250 b1 ce 96 3e 71 46 36 3d a5 5d e4 bd 04 e2 bd 3e
       0.29454568 0.044500772 -0.11150674 0.370865
000260 39 b9 8b 3e b0 a8 13 3e 40 fe 34 3d 01 1b 7f bd
       0.2728975 0.14419818 0.044187784 -0.062281612
000270 26 74 21 bf 9c c8 7d bd b9 82 67 be 4f 3c 6a 3e
       -0.63067853 -0.061958894 -0.2260846 0.22874568
000280 e8 da 73 be fe b0 3c be 6b 3b 4d be ac 69 57 be
       -0.23813975 -0.18426892 -0.20042197 -0.21036404
000290 de 23 9c be 25 7f cc bd 33 a9 f3 bd 09 84 4d 3e
       -0.30496114 -0.099851884 -0.118975066 0.20069899
0002a0 58 e4 17 be 76 4b 17 bf 69 9b 88 be a7 4f 45 bf
       -0.148332 -0.5909952 -0.2668107 -0.77074665
0002b0 2c 31 54 3f fd ec 53 be c4 ea 01 bf 5f 87 9d bd
       0.8288753 -0.20695873 -0.5074885 -0.076918356
0002c0 6e d0 8b 3d b6 74 24 3d c2 e6 aa bd 65 db 91 bd
       0.06826864 0.040150367 -0.08344795 -0.07121924
0002d0 01 e7 17 be dc ad 67 be 94 99 55 bf 40 f2 d4 bd
       -0.14834215 -0.22624916 -0.83437467 -0.10397768
0002e0 ea ea fc be 96 8f d3 bc d7 4d 2b 3d 7e 6a a3 be
       -0.49397975 -0.025825303 0.04182228 -0.31917185
0002f0 60 2f 1d be 01 65 d5 bc a2 57 21 3e fb 17 7a be
       -0.15350103 -0.026049139 0.15756086 -0.2442321
000300 d7 65 98 3d 0a af 20 bd 04 2f b8 bd 0e 3b 26 be
       0.074412994 -0.03922943 -0.089933425 -0.16233465
000310 ab d4 c8 be bf e4 b5 be 3a 64 f8 3f 1c 35 21 3c
       -0.39224753 -0.35526082 1.9405587 0.009839322
000320 b5 38 f7 bd 59 c3 8f bc 2c 7f 09 bd de da 8f bd
       -0.12071363 -0.017549204 -0.033568546 -0.070241675
000330 31 ca e2 ba 58 61 18 be 4f b4 09 bd 1d 8d d2 3e
       -0.0017302689 -0.14880884 -0.03361922 0.41123286
000340 f8 ea 40 bf 0c dc 0e be 7f 05 24 3e f6 b3 91 bf
       -0.75358534 -0.13951129 0.16017722 -1.1383045
000350 5f 48 f8 bd a4 06 d0 3d 51 8b 01 3d d9 06 0f 3e
       -0.12123179 0.101575166 0.031627003 0.13967456
000360 89 f9 53 3e 60 b6 bc 3e 70 73 f5 bd 9f ba 92 bd
       0.20700659 0.3685789 -0.119849086 -0.071645014
000370 ff 1a 36 bc eb 04 23 bf 56 e5 0e be 47 54 31 bf
       -0.011114835 -0.6367938 -0.13954672 -0.6926922
000380 b7 cc c2 bd f2 ad 05 3e 62 f4 3f be d6 10 c4 3b
       -0.095117025 0.13054636 -0.18745568 0.0059834523
000390 2b ab 9f be 96 46 56 3e 63 38 88 3e 5f d5 4f be
       -0.31185278 0.20925364 0.2660552 -0.20296238
0003a0 bb 87 7b be ee 0e 1d be 0b 5b 7d bf f4 4f a9 3e
       -0.24563496 -0.15337726 -0.98967046 0.33068812
0003b0 74 78 55 3e c6 68 92 ba 2a d3 e2 bd 16 e7 d4 3c
       0.2084673 -0.0011170141 -0.110754326 0.025989097
0003c0 89 96 1b be eb c5 14 3e 58 ed 59 3e 86 24 5b 3c
       -0.15194143 0.14528625 0.21281946 0.013375407
0003d0 f7 62 ae bc 94 5b ad bd f3 c1 07 be ef 2e dd 3d
       -0.021287424 -0.08464733 -0.1325758 0.107999675
0003e0 a1 84 5e 3f 3e 00 b2 3e 8d a3 3a c0 fa 2d 82 3c
       0.86921126 0.3476581 -2.9162323 0.015891064
0003f0 e7 73 de bc b7 57 56 be c7 53 cb 3d 9a 2f 13 bc
       -0.027154876 -0.20931898 0.09928089 -0.008983517

fc1.bias f4 [64]
000000 9f 49 93 3f 56 b5 b3 3f 6a e1 94 3f 4c 74 9c 3f
       1.1506842 1.4039714 1.1631291 1.2222991
000010 91 3a a7 3f 78 8a 95 3f 75 53 79 3f 76 2a 74 3f
       1.3064748 1.1682882 0.9739297 0.9537729
000020 33 34 2d 3f a9 44 76 3f 17 ae ee be 2c c3 57 bf
       0.67657775 0.9619852 -0.46617195 -0.84282184
000030 de 4c 86 3f e1 b4 43 3f b9 47 93 3f cd 28 2e bf
       1.0492208 0.76447874 1.1506263 -0.6803101
000040 8b 3e a0 3e 2f c7 1b 3f f6 26 9b 3f fb 2d 69 3e
       0.31297716 0.60850805 1.2121265 0.22771446
000050 31 03 98 bf 83 e2 03 3d 47 c0 a5 3f 80 24 b9 bc
       -1.1875974 0.03219844 1.2949303 -0.022600412
000060 b2 7f 9d 3f c0 48 b2 3f d6 0b 2e 3f 55 1b 40 3f
       1.2304595 1.3928452 0.6798681 0.75041705
000070 93 3c 89 3f b4 ef ad 3f c7 7e 3c bf d9 e4 44 3f
       1.0721611 1.3588777 -0.73630947 0.76911694
000080 43 0f 85 be ed a5 91 3f 53 5d 27 3e 2f 94 82 3f
       -0.25988206 1.1378762 0.16344194 1.0201472
000090 6a 2e ab 3f e6 3f 09 3e 15 0b 57 3f 5a 0a 79 bf
       1.337354 0.13403282 0.84001285 -0.9728142
0000a0 ee d5 8e 3f 5a 4e 8d 3f df ba 33 bf fe 63 bb 3f
       1.1159036 1.1039536 -0.7020702 1.463989
0000b0 5f fa bb 3e 3a a8 27 3f 43 14 9f bf ba c8 c0 be
       0.36714455 0.6549107 -1.2428058 -0.37653142
0000c0 65 0e f7 3d 9f 7f 8a bf 51 6a 01 bf df 03 9b bc
       0.120632924 -1.0820197 -0.5055285 -0.018922744
0000d0 13 70 ae 3f 8a 34 17 be c8 49 27 be d7 a0 87 3f
       1.3627952 -0.14766136 -0.16336739 1.059596
0000e0 5d d7 87 3f cb a1 7f bf 0a 50 82 3f 80 75 71 be
       1.0612599 -0.9985625 1.0180676 -0.23579979
0000f0 0a 2b 94 3f 0c 06 8f 3f d0 6d ae 3f 99 bb 90 3f
       1.1575634 1.117372 1.3627262 1.130725

fc3.weight f4 [6, 64]
000000 3c 83 ba 3e ea f1 2e 3f 25 9b e4 3e 14 2c 33 3f
       0.3642825 0.6833788 0.44649616 0.6998913
000010 3f 3f 23 3f 0e 30 e4 3e 33 5a c3 3e d6 54 f0 3e
       0.6376838 0.44567913 0.38154754 0.46939725
000020 0f 8c ba 3e ae a9 b8 3e e0 90 24 bf c1 b3 d9 be
       0.3643498 0.36066955 -0.6428356 -0.42519954
000030 b1 29 ad 3e 54 0d 2f 3e f0 2a ca 3e 8c a3 b0 bf
       0.3382087 0.17094928 0.39485884 -1.379991
000040 5d d7 d7 3d b6 68 84 3e f5 f4 09 3f 21 86 2b 3f
       0.10539124 0.25861138 0.538894 0.6700154
000050 e6 11 1a bf 53 4b a8 3d 4b 15 40 3f 3a 11 17 3d
       -0.6018356 0.08217492 0.7503249 0.036881663
000060 14 ed ed 3e 27 bf 03 3f 0d a6 b4 3e 47 7b ab 3e
       0.4646994 0.5146355 0.35282937 0.3349249
000070 1f c4 c8 3e d9 b3 2e 3f e5 5e de bf 6d 0c bc 3e
       0.3921213 0.68243176 -1.737271 0.3672823
000080 9f 83 42 be dd 2e ea 3e 7f f0 2c 3e 29 86 e1 3e
       -0.18995522 0.4573888 0.16888617 0.4404767
000090 ce bf f2 3e 76 41 f2 3e 72 c2 a8 3e 52 07 ad bf
       0.4741196 0.47315568 0.3296085 -1.3517859
0000a0 ca 63 11 3f dc e3 d7 3e f8 54 ae bf c5 a4 17 3f
       0.5679289 0.4216603 -1.361968 0.59235793
0000b0 4c 93 11 3e d7 f6 a5 3e 7e 60 f3 be 1a 94 70 be
       0.14216346 0.32414886 -0.47534555 -0.23493996
0000c0 74 7d 6c 3d ce cc a9 bf 11 c5 2a bf e0 0f 15 3d
       0.05773683 -1.3265626 -0.6670695 0.036392093
0000d0 e6 76 2f 3f aa 47 ed bd c6 1c ca 3d 6f 32 92 3e
       0.685408 -0.115859345 0.09868769 0.28554103
0000e0 d2 b3 cd 3e 08 03 5a bf 84 8d fb 3e 01 d5 97 be
       0.40176255 -0.85160875 0.49131405 -0.29654697
0000f0 04 83 12 3f 66 6a e7 3e 9a 1c 24 3f 5b 3e fb 3e
       0.57231164 0.45198363 0.6410614 0.4907101
000100 b1 01 d3 3e bf 4e 3d 3f 2a 50 ba 3e 94 ab 3c 3f
       0.41212228 0.7394828 0.36389285 0.7369931
000110 82 ae 14 3f d8 58 ee 3e c9 31 c1 3e d1 82 cf 3e
       0.5807878 0.46552157 0.37733296 0.40529492
000120 39 61 87 3e 18 fd bb 3e e4 0e 22 bf 03 70 c4 be
       0.26441363 0.36716533 -0.6330397 -0.38366708
000130 c5 c7 b2 3e 8e 72 25 3e 24 1e b9 3e f2 07 9c bf
       0.34918037 0.1615698 0.36155808 -1.2189925
000140 c0 8a ba 3e 92 a8 4e 3e 37 e5 0b 3f e8 6f 35 3f
       0.36433983 0.20181492 0.5464663 0.7087388
000150 4f ad 0f bf 45 83 89 bd 98 2f 2f 3f 11 d5 50 3e
       -0.5612382 -0.06714491 0.68432 0.20393778
000160 f1 96 03 3f 6c 10 07 3f 52 b2 84 3e b3 aa ad 3e
       0.51402193 0.5275943 0.25917298 0.33919296
000170 08 60 b4 3e 34 f2 22 3f 91 b1 d2 bf 97 ef ac 3e
       0.35229516 0.6365082 -1.6460439 0.33776543
000180 cc 6d df be 47 03 dc 3e 86 9c 7e 3e 40 d7 f7 3e
       -0.43638456 0.4297125 0.24864396 0.4840641
000190 00 09 0a 3f 54 aa 34 3f cb e8 97 3e 62 5c ad bf
       0.5391998 0.705724 0.29669794 -1.3543818
0001a0 07 2e 07 3f af 29 db 3e 16 c3 a1 bf c0 c2 fa 3e
       0.5280461 0.4280524 -1.263766 0.48976707
0001b0 91 c8 6a 3e a8 18 98 3e 55 56 0a bf 3d 36 9b be
       0.22928073 0.2970631 -0.5403798 -0.30314818
0001c0 13 f3 8f 3e 31 96 9d bf af 10 38 bf 23 1c 41 3e
       0.28115138 -1.231146 -0.7190046 0.1885839
0001d0 0c 3a 43 3f a4 2a 69 3d 27 b4 4a 3e c5 21 84 3e
       0.7626045 0.05692543 0.19795285 0.25807014
0001e0 2d ee d2 3e f6 46 29 bf 25 a1 e6 3e 08 20 d0 be
       0.4119734 -0.661239 0.4504482 -0.40649438
0001f0 93 ae 01 3f c9 d8 ba 3e 9d 69 27 3f 61 c7 09 3f
       0.50657004 0.3649352 0.6539553 0.53819853
000200 a5 cc d0 3e 24 99 2a 3f 9a a0 06 3f d3 08 13 3f
       0.4078113 0.66639924 0.5258881 0.5743534
000210 83 e9 ee 3e ad ac 13 3f ee 6f 9f 3e d4 25 af 3e
       0.4666253 0.5768536 0.31140083 0.34208548
000220 40 70 b7 3e cc dd a9 3e 29 18 a3 be b9 28 aa be
       0.35827827 0.3317703 -0.3185437 -0.33234194
000230 b4 cd ea 3e 00 84 9f 3e 93 eb d8 3e c7 7d ec bf
       0.45860064 0.31155396 0.4236723 -1.8475884
000240 a7 f7 a5 bd 12 43 b5 3e 42 4d f3 3e 96 ca 71 3f
       -0.081038766 0.35402733 0.4751988 0.94449747
000250 2d d6 a1 be 66 ac a8 3d d2 cf 2b 3f 5f ac 07 3d
       -0.31608716 0.082360074 0.67113984 0.03312337
000260 73 8a 12 3f 98 25 22 3f e9 d3 8d 3e 39 f7 a7 3e
       0.57242507 0.63338614 0.27700737 0.32805803
000270 1b a6 a5 3e 33 08 29 3f a7 cb e1 bf a6 43 71 3e
       0.3235329 0.66028136 -1.7640275 0.23560962
000280 29 98 6e be 6c 16 07 3f a3 69 c6 3e 4e aa d7 3e
       -0.23300232 0.5276859 0.3875247 0.4212212
000290 6a 1d 25 3f 07 c6 5b 3f f5 91 d7 3e 34 24 c2 bf
       0.6449801 0.8584904 0.42103544 -1.5167298
0002a0 96 28 fa 3e 69 68 9e 3e 62 17 9d bf bd cf 35 3f
       0.4885909 0.30939034 -1.2272761 0.7102011
0002b0 22 68 41 3e ae 03 c0 3e 82 39 13 bf 5c 3d 9c be
       0.1888738 0.37502807 -0.57509625 -0.30515563
0002c0 fe 24 9b 3e b5 4a c2 bf 9f d4 56 bf 76 fa b9 3e
       0.3030166 -1.5179049 -0.83918184 0.363239
0002d0 2d 6a 14 3f 30 ef 53 3c 81 fa 2c 3e 58 b8 c3 3e
       0.5797451 0.012935445 0.16892435 0.3822658
0002e0 7a cc c7 3e ab 4d 5c bf 37 f1 b8 3e b9 70 76 bd
       0.3902319 -0.8605601 0.36121532 -0.060166094
0002f0 16 b4 36 3f 47 12 f8 3e 41 52 19 3f a0 9b 15 3f
       0.7136854 0.48451445 0.59891135 0.5844059
000300 f1 53 1f 3f c8 52 3b 3f b4 e5 02 3f 65 7c 20 3f
       0.6223746 0.7317319 0.5113175 0.6268981
000310 cd ed 26 3f 7a 25 d4 3e cb 11 16 3f 55 20 cf 3e
       0.65206605 0.41434842 0.586209 0.40454355
000320 63 d2 86 3e 4c 49 e1 3e 4a e7 20 bf 4a f4 fc be
       0.26332387 0.44001234 -0.6285292 -0.49405128
000330 87 e7 ab 3e 5f fb 7a 3e ca 2a 37 3e ae 09 e5 bf
       0.3357508 0.24509953 0.17887416 -1.7893579
000340 f8 a3 54 3e 42 7d 1b 3e c3 4f 04 3f 1f 3b 4f 3f
       0.20765674 0.15184501 0.51684207 0.80949587
000350 6b a0 29 bf a9 23 f4 bd 26 5c 22 3f e2 5f 3e 3e
       -0.66260403 -0.11920864 0.6342186 0.18591264
000360 81 e4 00 3f fc 00 19 3f 64 42 b1 3e bf e9 83 3e
       0.5034867 0.5976713 0.34620965 0.25764272
000370 be fc f4 3e 11 82 db 3e 9e 9d cd bf 39 c1 c5 3e
       0.47849077 0.4287267 -1.6063726 0.3862398
000380 7d 10 da be 07 a9 0b 3f 2f 72 0e 3e 90 fb e0 3e
       -0.42590705 0.5455479 0.13910745 0.43941927
000390 24 d7 eb 3e de 40 71 3f 4d 37 cf 3e 0e 54 ab bf
       0.46062577 0.94239604 0.4047188 -1.3385026
0003a0 c0 80 d9 3e 3c 99 05 3f 90 16 a4 bf f1 d6 3c 3f
       0.4248104 0.5218694 -1.2819386 0.73765475
0003b0 d5 03 ff 3d df 40 99 3e 3a ce e3 be cc c0 a1 be
       0.12451903 0.29932305 -0.44493276 -0.31592405
0003c0 87 3b d8 3e d1 5b 93 bf 84 6b 06 bf fa 60 84 3e
       0.42232916 -1.1512395 -0.52507806 0.25855237
0003d0 ab d3 46 3f 83 3e a0 bd 75 d8 89 3f 58 8e 63 3e
       0.7766673 -0.07824423 1.0769182 0.22222269
0003e0 a1 ce 26 3f 05 34 39 bf 77 85 e1 3e 60 f4 b5 be
       0.6515904 -0.72345 0.44047138 -0.35538006
0003f0 b4 0a 8b 3e 58 eb 9c 3e 52 d6 13 3f 26 64 01 3f
       0.27156603 0.30648303 0.577489 0.5054344

fc3.bias f4 [6]
000000 b4 9f 3c 3f 8b a4 09 3f b0 5d 65 3f 84 b1 35 3f
       0.7368119 0.537667 0.8959608 0.7097399
000010 5c 82 28 3f 50 42 41 3f
       0.6582391 0.7549181
