models/DQN_SP_2.pth (torch, 7432 bytes, 4 tensors)

fc1.weight f4 [64, 13]
0	0xbf9b5b7f	-1.2137297
1	0x3da1f6f3	0.0790843
2	0xc01f26d7	-2.4867456
3	0x401d933d	2.4621117
4	0xbf5d4498	-0.8643279
5	0xbfff9a51	-1.9968969
6	0x3efc5998	0.49287105
7	0x3f1b3231	0.6062346
8	0xbeee948e	-0.46597713
9	0x3ddfa15e	0.1091945
10	0xbf7359ef	-0.950591
11	0xbeeb2bbb	-0.459318
12	0x3f28e4ce	0.6597413
13	0x4067c59d	3.6214364
14	0x3f1ead03	0.61982745
15	0x3e208ebd	0.1567945
16	0xbf97366d	-1.1813484
17	0x3e13f704	0.14449698
18	0x3e39322f	0.1808555
19	0x3ed2e1bf	0.41187856
20	0xbe12b26d	-0.14325877
21	0x3f33dd6f	0.70259756
22	0xbd373702	-0.044730194
23	0x3ef62666	0.4807617
24	0x3e287c54	0.16453677
25	0x3f008681	0.50205237
26	0xc01b64a5	-2.4280179
27	0xc0308ee7	-2.758722
28	0x3eda946b	0.4269136
29	0xc07c48c9	-3.9419425
30	0xbebd4ab6	-0.36971062
31	0xc0217569	-2.5227911
32	0xbf87dc75	-1.0614153
33	0x3f32ca9c	0.6984041
34	0x3ebc87c4	0.3682233
35	0xbebc62f5	-0.36794248
36	0xbe704bea	-0.23466459
37	0xbec597a1	-0.38592246
38	0xbfd13aa6	-1.6346023
39	0x405cb747	3.4486864
40	0xbe15a23b	-0.14612667
41	0x3f501dce	0.8129548
42	0x3faede3b	1.3661569
43	0xbe914627	-0.28373834
44	0xbeb5a066	-0.35473937
45	0xbff7b00b	-1.9350599
46	0xbe28aa05	-0.16471107
47	0x3d706522	0.058690198
48	0x3ec5cd0b	0.38632998
49	0xbe749360	-0.23884344
50	0x3f0f2604	0.5591738
51	0xbe9de99a	-0.30842286
52	0x40225205	2.536256
53	0x3f936f51	1.1518346
54	0x3f495db8	0.7865863
55	0x3e4af59a	0.19820252
56	0xbe22ad07	-0.15886317
57	0x3fd9df9e	1.7021368
58	0x3c47a118	0.012184404
59	0xbea9398b	-0.33051714
60	0xbd545679	-0.05184028
61	0x3edc4764	0.43023217
62	0x3ea6ef5b	0.3260449
63	0x3f776e80	0.96652985
64	0xbede328f	-0.43397948
65	0xc02161d7	-2.5215967
66	0x3e805f1b	0.2507256
67	0x3db04087	0.086060576
68	0x3fa8ff76	1.320296
69	0xc0089799	-2.1342528
70	0xc0144278	-2.316557
71	0xbfb2115b	-1.3911546
72	0xc02f9cfe	-2.743957
73	0xc05b6d6d	-3.4285538
74	0xc01f8fa5	-2.4931424
75	0xbfe80ec4	-1.8129506
76	0x3f2b65c9	0.66952187
77	0xbee138be	-0.43988603
78	0xc03a0bb3	-2.906964
79	0x3dd39cc3	0.10332634
80	0xbfbbddbc	-1.4677043
81	0xbfb35a9f	-1.401203
82	0xbee7491e	-0.4517297
83	0xbee39511	-0.44449666
84	0x4013cd5f	2.3094099
85	0x3d630f62	0.055434592
86	0xbedf2dfb	-0.43589768
87	0xbf34235b	-0.7036645
88	0x40019785	2.024873
89	0xc0100b48	-2.2506886
90	0xbe9246eb	-0.2856973
91	0xc00a1aa6	-2.1578765
92	0x40128bff	2.2897947
93	0x3fb09ceb	1.3797888
94	0xbedcb2e0	-0.4310522
95	0x3f5bfdd2	0.85934174
96	0xbee3da57	-0.44502518
97	0xbff44cf5	-1.9085985
98	0xbfdebd09	-1.7401439
99	0xbf35d382	-0.7102586
100	0x3d1c7e67	0.038206484
101	0x402363e6	2.5529723
102	0xc00c3514	-2.1907396
103	0xbf2f1caa	-0.6840311
104	0x40933476	4.600154
105	0x3d976cf5	0.07393829
106	0xbe5c103c	-0.21490568
107	0xbe966b20	-0.29378605
108	0xbbf33128	-0.0074216314
109	0xbe31107c	-0.17291445
110	0xbf482c96	-0.7819303
111	0x3d65bcac	0.056088135
112	0xbe1a9899	-0.15097274
113	0xbdb489fb	-0.0881538
114	0xbe0114b8	-0.1260556
115	0x3e765e8b	0.24059503
116	0xbd367897	-0.044548597
117	0xc08dd643	-4.432405
118	0xc027e4df	-2.6233442
119	0x3fb50218	1.4141264
120	0xbf9568ac	-1.1672568
121	0xc0606ef5	-3.5067723
122	0xbfbe1609	-1.4850475
123	0xbe02b7c7	-0.12765418
124	0x3f087210	0.53299046
125	0xbf3105fd	-0.6914976
126	0x3fddcdcc	1.7328429
127	0xbfddd4fd	-1.7330624
128	0x4003bcf3	2.0584075
129	0xbf83f89d	-1.0310246
130	0x3fde6298	1.7373838
131	0x3fbaef73	1.4604324
132	0xbf4ee349	-0.8081556
133	0xc0041b69	-2.064173
134	0xbfaf49e9	-1.369443
135	0xc012ccb7	-2.2937448
136	0x401be577	2.4358804
137	0x3fd9ebe1	1.702511
138	0xbfb5fd24	-1.4217877
139	0x3f04b867	0.51843876
140	0x3c243cf0	0.010024294
141	0xbf414c3d	-0.75506955
142	0xbf88f6f5	-1.0700365
143	0x3f950722	1.1642802
144	0xbfaa60c2	-1.3310778
145	0x402b996e	2.6812396
146	0xc03cf287	-2.9523027
147	0x3f12cd38	0.5734439
148	0xc01256ff	-2.2865598
149	0x3f8dea03	1.108704
150	0x3e7e0735	0.24807437
151	0xbcaaccec	-0.020849667
152	0xc028c2e0	-2.6368942
153	0xbfa65801	-1.2995607
154	0xbfd2e919	-1.6477386
155	0xbf4c3f14	-0.7978375
156	0xc033a82c	-2.8071394
157	0x3f258a3b	0.6466405
158	0xbf425472	-0.75910103
159	0xc00c2416	-2.1897025
160	0xbefe1d00	-0.496315
161	0x3e40efee	0.18841526
162	0xbfe8778c	-1.8161483
163	0x3ecb80fc	0.39746845
164	0x400ea819	2.2290099
165	0xbf032a1d	-0.51236135
166	0xbf343979	-0.70400196
167	0x3fe996c9	1.8249141
168	0xbfc1f901	-1.5154115
169	0xc03dfe25	-2.9686368
170	0x3ebb736a	0.3661149
171	0x40028d32	2.0398679
172	0x3fb74f94	1.432116
173	0x3f3f6ea2	0.7477819
174	0x3eeaa6ad	0.4583029
175	0xbde751a6	-0.1129487
176	0x3ef68889	0.48151043
177	0x3cf39303	0.029733187
178	0xbe57c437	-0.21070944
179	0x3f054183	0.5205309
180	0xbf284c33	-0.6574127
181	0xbfb01756	-1.3757122
182	0xc08b187c	-4.346739
183	0xbed0f4d1	-0.4081178
184	0x3fff21c2	1.9932177
185	0x400ac070	2.1679955
186	0x3daa9020	0.08328271
187	0xbf4a4c51	-0.790227
188	0xbeba8feb	-0.36437926
189	0xbd661cef	-0.056179937
190	0xbf36d3ff	-0.7141723
191	0xbe50ff84	-0.20409971
192	0x3de7f4a0	0.113259554
193	0x3eb9ba5a	0.36274987
194	0x3ed97cb5	0.42477956
195	0x3ffff792	1.9997427
196	0xbe01ffd4	-0.12695247
197	0xc01fa736	-2.4945807
198	0x3f4664af	0.7749738
199	0xbe0dbbe8	-0.13841212
200	0xbfec26c1	-1.8449327
201	0x3ccd0d18	0.025030658
202	0xbd13f66f	-0.03612369
203	0xbfab6142	-1.3389056
204	0x3e74a281	0.23890115
205	0xbfa2dcc8	-1.2723627
206	0xc0041d97	-2.064306
207	0xbf286cea	-0.6579119
208	0xbf7ea01a	-0.99463046
209	0xbe572ea4	-0.21013886
210	0x3fbff097	1.4995297
211	0xc0004b74	-2.0046053
212	0xbf4c29d6	-0.79751337
213	0x3fb2eb95	1.3978144
214	0xbf94eadb	-1.1634172
215	0x3e5bd36f	0.21467374
216	0xbf9a0f0f	-1.2035846
217	0xbd173937	-0.0369198
218	0xbd886e9a	-0.066617206
219	0x3f7ad35a	0.97978747
220	0xc0386ac4	-2.8815165
221	0xc00418af	-2.0640066
222	0x3e8132de	0.2523412
223	0xbf2b85bd	-0.67000943
224	0xbf2e5522	-0.6809865
225	0x3ff97c6d	1.9491097
226	0x3e39dd8c	0.1815092
227	0x3fcd425b	1.6035875
228	0xbf02aed6	-0.5104803
229	0x3f2a502f	0.665286
230	0x3fbd6ecf	1.4799441
231	0x3eb57e15	0.35447755
232	0x3eec2f9e	0.4613008
233	0xbefdebbc	-0.49593914
234	0x3e8c205a	0.27368432
235	0xbfe3e7f5	-1.7805163
236	0x402e752e	2.725902
237	0xc063660a	-3.553103
238	0x3dd06d64	0.101771146
239	0xbf727b79	-0.94719654
240	0xbf8442ce	-1.0332887
241	0xbf1a941e	-0.6038226
242	0xbf9aad2f	-1.2084101
243	0xbf8989b1	-1.0745145
244	0xbfb4615d	-1.4092213
245	0xbf9c8f98	-1.2231321
246	0xc05c61b4	-3.4434633
247	0xc013e132	-2.3106198
248	0x3d5c82cf	0.053835686
249	0xbe531c48	-0.20616257
250	0x3eca552d	0.3951811
251	0xbeffd697	-0.49968407
252	0x3fb366df	1.4015769
253	0xbf580cf4	-0.84394765
254	0xc071fc47	-3.7810228
255	0xbf89db3a	-1.0770028

fc1.bias f4 [64]
0	0xc083c39b	-4.1176276
1	0xbfe4dd6c	-1.7880073
2	0x3f4c0a99	0.7970367
3	0xbfd0b0d8	-1.6303968
4	0xc013abfa	-2.3073716
5	0x3ee32c69	0.4436982
6	0xbee5fbcd	-0.4491867
7	0xbf9585e9	-1.1681491
8	0xc00cf449	-2.20241
9	0xbfc6db56	-1.5535686
10	0xc00aa05d	-2.1660378
11	0xbf9b5cec	-1.2137733
12	0xbfc5c534	-1.5450807
13	0xc070deba	-3.7635942
14	0xbf0292dc	-0.5100534
15	0xc0914fd7	-4.540996
16	0xbfca28ec	-1.5793738
17	0xbef6879e	-0.48150343
18	0xc097b4c9	-4.7408185
19	0xbe994484	-0.29935086
20	0xbf3feb89	-0.74968773
21	0xc085c853	-4.1807036
22	0xbf96df95	-1.1786982
23	0xbf829b81	-1.0203706
24	0xbfaafb23	-1.3357891
25	0x3e3cbb89	0.18430914
26	0xbfe02b69	-1.7513248
27	0x3fe154bc	1.7603984
28	0xbf84583d	-1.0339428
29	0xbf4a0a71	-0.7892218
30	0xbfafd9cd	-1.3738343
31	0xc0839d4c	-4.1129513
32	0xbff9c89f	-1.951435
33	0xbd717f8a	-0.05895952
34	0xc0330412	-2.7971234
35	0xc029041d	-2.640876
36	0xbfd57d68	-1.6678896
37	0xc0055004	-2.0830088
38	0xc00b453d	-2.176101
39	0x402e12d7	2.7199
40	0xbff4a761	-1.911358
41	0xbf980ebf	-1.18795
42	0xc05218a0	-3.282753
43	0xc0a9fac6	-5.311862
44	0xbfaa745b	-1.3316759
45	0xbf88ba1d	-1.0681797
46	0xbf04b02b	-0.5183131
47	0xc0d84d33	-6.7594237
48	0xc0186ffc	-2.381835
49	0x3eda1517	0.42594215
50	0xbfedfae0	-1.8592186
51	0xc0202350	-2.5021553
52	0x3eb730b9	0.3577936
53	0xbe2cc644	-0.16872507
54	0xbfce666c	-1.6125007
55	0xbee233f5	-0.44180265
56	0x4093332d	4.599997
57	0xc055626a	-3.3341317
58	0xc044b5a8	-3.0735874
59	0xbfcfc116	-1.62308
60	0xc0d4cea5	-6.650225
61	0xbf506208	-0.81399584
62	0xbe552e96	-0.20818552
63	0xbff70221	-1.9297525

fc3.weight f4 [6, 64]
0	0xc022ba2d	-2.5426133
1	0xc02a5cc2	-2.6619115
2	0x3f8c760c	1.0973525
3	0xbf9fa887	-1.2473305
4	0xbf23e3d1	-0.64019495
5	0x3f87eb52	1.0618689
6	0x3ff77c95	1.9334894
7	0xbf7cbd53	-0.98726386
8	0xbfd54e8a	-1.6664593
9	0xbf2ba6ea	-0.67051566
10	0xbfa0f1ac	-1.2573752
11	0x3ea16ca6	0.31528205
12	0xbe1125a9	-0.14174522
13	0xc023b7d6	-2.5580955
14	0x3e8d98ce	0.27655643
15	0xc03721cf	-2.8614385
16	0xbed1641c	-0.4089669
17	0x3e3fade7	0.18718682
18	0xc01f4c1d	-2.4890206
19	0x3dbcd411	0.09220136
20	0x3ee410c8	0.44544053
21	0xbf98256e	-1.1886423
22	0xbf0743cd	-0.5283783
23	0xbf50feb4	-0.81638646
24	0x3e986940	0.297678
25	0x3ebef369	0.37295082
26	0xbf17d46d	-0.5930851
27	0x3fca43c9	1.5801936
28	0xc00fabaa	-2.2448525
29	0x3f51e7c2	0.8199426
30	0xbfeb1315	-1.8365198
31	0xbfe1d8d2	-1.7644293
32	0xc0061ba3	-2.0954368
33	0x3f2e4f09	0.6808935
34	0xbfea526b	-1.8306402
35	0xbfa081e1	-1.2539636
36	0xbeba5a1f	-0.36396882
37	0xbfad9df5	-1.356383
38	0xbf77ef1f	-0.96849245
39	0x3fff0f3e	1.9926527
40	0xbeb302a9	-0.34962967
41	0x3f38ee66	0.7223877
42	0xc000271c	-2.002387
43	0xc091feb6	-4.5623426
44	0xbf40b55a	-0.7527672
45	0xbf1614d3	-0.58625525
46	0xbf1931a3	-0.59841365
47	0xc0808436	-4.016139
48	0xbf4a92e1	-0.7913037
49	0x3ee6d996	0.4508788
50	0xbf24632d	-0.6421383
51	0xc0101cc2	-2.2517552
52	0x3f11ad81	0.5690537
53	0x3feac044	1.8339925
54	0xbd279932	-0.040917583
55	0x3f03f0fc	0.5153959
56	0x401ee13e	2.4824977
57	0xbf5ed871	-0.87049013
58	0xbf6a3169	-0.91481644
59	0xbf851b85	-1.0399023
60	0xc0725f3f	-3.7870634
61	0x3f706336	0.93901384
62	0x3e7c9285	0.24665268
63	0xbf02f049	-0.51147896
64	0xc038ed55	-2.8894856
65	0xc0285665	-2.630273
66	0x3f838ecd	1.0277954
67	0xbf9f02b2	-1.2422698
68	0xbf1acd9b	-0.6046998
69	0x3f8460cc	1.034204
70	0x3fe26b83	1.768906
71	0xbf887e1a	-1.0663483
72	0xbfcc75e3	-1.5973476
73	0xbf263c30	-0.6493559
74	0xbf9a5df5	-1.2059923
75	0x3e7ba603	0.24575047
76	0xbe70daaf	-0.23520921
77	0xc041b9ee	-3.0269732
78	0x3e12a1d8	0.14319551
79	0xc03f2fcc	-2.9872923
80	0xbed4140d	-0.41421548
81	0x3e43868a	0.19094291
82	0xc0196cb8	-2.3972607
83	0x3dd7be88	0.10534388
84	0x3ed3be6c	0.41356218
85	0xbf90a9b2	-1.1301787
86	0xbf59ff91	-0.8515559
87	0xbf20a580	-0.6275253
88	0x3e8c7046	0.27429408
89	0x3edd7fe2	0.4326163
90	0xbf624d3f	-0.8839912
91	0x3fc5abd4	1.5443063
92	0xbff9b1f4	-1.9507432
93	0x3f3ce60b	0.7378852
94	0xbfd761cd	-1.6826721
95	0xbfed68ca	-1.8547604
96	0xc012aafe	-2.2916865
97	0x3ecbc852	0.3980127
98	0xbfd671b3	-1.6753448
99	0xbf9e09fd	-1.2346798
100	0xbee820c3	-0.45337495
101	0xbfb1b161	-1.3882257
102	0xbf832be0	-1.0247765
103	0x4003cd61	2.0594103
104	0xbe953cd8	-0.29147983
105	0x3f4dcc10	0.803895
106	0xc010863e	-2.2581935
107	0xc09332c6	-4.599948
108	0xbf59b891	-0.8504725
109	0xbf4c0c2d	-0.7970608
110	0xbf3dc5da	-0.7413002
111	0xc089e8c6	-4.3096647
112	0xbf7f2414	-0.99664426
113	0x3ec99cee	0.3937754
114	0xbf0163bc	-0.5054281
115	0xc011ad5e	-2.2762065
116	0x3efda69f	0.49541184
117	0x3fd0fe6f	1.6327647
118	0xbe21a586	-0.15785798
119	0x3edbf4c7	0.42960188
120	0x401f6727	2.490671
121	0xbf714d47	-0.9425854
122	0xbf43db6e	-0.765067
123	0xbf12f913	-0.5741131
124	0xc07f508a	-3.9892907
125	0x3f8bb1a5	1.0913588
126	0x3e90dbf9	0.28292826
127	0xbefe5f3b	-0.4968203
128	0xc0041878	-2.0639935
129	0xc0246bff	-2.5690916
130	0x3f467c5e	0.7753352
131	0xbfd37505	-1.6520087
132	0x3cd29617	0.025706334
133	0x3efb1abb	0.4904383
134	0x3fe6c0af	1.8027552
135	0xbf9c2789	-1.2199565
136	0xbf2c2e6b	-0.6725833
137	0xbf837fd6	-1.0273387
138	0xc02a1dbd	-2.658065
139	0x400abbb7	2.1677072
140	0xbfd3b371	-1.6539136
141	0xbf4e314f	-0.8054399
142	0x3ec8d659	0.39226034
143	0xc042820e	-3.039188
144	0xbfbc3179	-1.4702598
145	0x3e6dd36d	0.23225184
146	0xc036fbea	-2.8591256
147	0x3e7bec4e	0.24601862
148	0x3eb8f39f	0.36123368
149	0xbf8b2f14	-1.0873742
150	0xbf49f406	-0.78887975
151	0xc03e00c6	-2.9687972
152	0xbf3061dd	-0.6889933
153	0x3f04f98e	0.5194329
154	0xbeebf15e	-0.46082586
155	0x3fa91ffe	1.3212888
156	0xc0346ac3	-2.8190162
157	0x400fca9c	2.2467413
158	0xc010e48c	-2.2639494
159	0xc0130a53	-2.2975051
160	0xc008ba6b	-2.136378
161	0x3fe9d6aa	1.8268635
162	0xc068d978	-3.6382732
163	0xbfafefbc	-1.3745036
164	0x3ea9b7c6	0.3314802
165	0xbfd702d2	-1.6797736
166	0xbe3b8d98	-0.18315732
167	0x4016a001	2.3535159
168	0xbe931d5a	-0.2873333
169	0x3f527476	0.82208955
170	0xc01b14d9	-2.4231474
171	0xc0793d56	-3.8943686
172	0xbfd7fd19	-1.6874114
173	0x3f4029d6	0.75063837
174	0x3eef67f0	0.46758986
175	0xc08e9a1e	-4.456313
176	0x3e06819f	0.13135384
177	0x3fa9a10f	1.3252276
178	0xbf214b08	-0.63005114
179	0xbf829137	-1.0200566
180	0x3ee47f39	0.44628313
181	0x3f2d2804	0.67639184
182	0xbfbf1653	-1.4928688
183	0x3ee3f157	0.44520065
184	0x40254176	2.5821204
185	0xbf864f82	-1.0493014
186	0xbf25a293	-0.64701194
187	0xbf876a12	-1.0579245
188	0xc0875cf4	-4.230097
189	0x3eb3f626	0.35148734
190	0x3ec02b52	0.3753305
191	0x3d90eed0	0.070768
192	0xc01e4100	-2.4727173
193	0xc047b790	-3.1205788
194	0xbd5f448a	-0.054508723
195	0xbfb59b88	-1.4188089
196	0xbf9c473d	-1.220924
197	0x3f6a398d	0.91494066
198	0xc01f3d06	-2.4880996
199	0x3fadd716	1.3581264
200	0xbfe900fe	-1.8203428
201	0xbf2a3a01	-0.66494757
202	0xbfa70476	-1.3048236
203	0x3edc05b6	0.42973107
204	0xbf46e293	-0.77689475
205	0xc02b298f	-2.6744115
206	0x3fc90eeb	1.5707678
207	0xc013995e	-2.3062358
208	0xbf67a662	-0.90488255
209	0xbfb44627	-1.4083909
210	0xc026db76	-2.6071448
211	0x3f84da66	1.037915
212	0x3f59d9b5	0.8509782
213	0xc01b2f6e	-2.4247699
214	0xbf263d0e	-0.6493691
215	0x40c9494a	6.2901964
216	0x3f26e80f	0.65197843
217	0x3f0661b1	0.52492815
218	0xbfb6b62f	-1.4274348
219	0x3f653465	0.8953307
220	0xbf320147	-0.695332
221	0x3f5ea496	0.8696989
222	0xc01e8f82	-2.477509
223	0xc019590f	-2.3960607
224	0xbff28c90	-1.8949146
225	0xbe4c113b	-0.19928448
226	0xc016db73	-2.357144
227	0xbfce0994	-1.6096673
228	0xbfc96cd7	-1.573634
229	0xbf4d785a	-0.80261767
230	0xc045605c	-3.0840063
231	0x4009e818	2.1547909
232	0xc001d487	-2.0285966
233	0x3f2f7e59	0.68552166
234	0xbfd66e5d	-1.675243
235	0xbfdb658e	-1.7140367
236	0xc074110a	-3.81354
237	0xbb2278a6	-0.002479115
238	0x3e24600e	0.16052267
239	0xc075504d	-3.8330262
240	0xbf722ca8	-0.9459939
241	0xbe397cf2	-0.18114069
242	0xbe5bbcc2	-0.21458724
243	0xbfe10bf1	-1.7581769
244	0xbe805f80	-0.2507286
245	0xc04d2fb4	-3.2060366
246	0xbf500951	-0.81264216
247	0x3f42b9a7	0.76064533
248	0x40266a3c	2.600234
249	0xc0511fff	-3.267578
250	0xbfcf989d	-1.6218449
251	0xbee88437	-0.45413372
252	0xc05273cc	-3.2883177
253	0x3f125778	0.57164717
254	0x3e969751	0.2941232
255	0xc03831a2	-2.8780293

fc3.bias f4 [6]
0	0x4089024a	4.2815294
1	0x4074264c	3.8148375
2	0x408a3d1e	4.3199606
3	0x4093d55d	4.6197953
4	0x408198ef	4.0499187
5	0x40830165	4.09392
