models/DQN_SP_best.pth (torch, 7440 bytes, 4 tensors)

fc1.weight f4 [64, 13]
00000000: 04d1 8440 e0db d8bf e365 3ec0 75bf e4be
00000010: d1d4 a63e d357 7dbe f927 013f 4569 b63f
00000020: 8f7c 823f 5911 c03e 2c24 83bf 75b6 d2bf
00000030: a8c3 48be 58f8 9640 2485 d03f 1bdc be3f
00000040: 33f4 c53f b2f9 92bd 3862 85be 7616 b53f
00000050: 0d33 91bf 6e16 39bf ccb6 473e 8a90 2940
00000060: 6af6 9e3f 521f bc3f f853 2740 f898 c7bd
00000070: 9be3 e0bf f2a2 0c40 76e0 4c3f 437e 303f
00000080: 6afd 5bbf bf81 a73f 3b89 753f d38a 643f
00000090: 4e0a 9cbe 018a df3e 53e0 6dbd c524 7840
000000a0: 9e39 e1be 6ad5 f83e 5304 85bf b955 b73e
000000b0: f990 73bf 740b e5bd 68cb a43e ecdb 47bf
000000c0: cdaa 88bf 368d c8bf 3f27 693e dfaa 9e3f
000000d0: a322 163f 32ec 1cbd 08a8 79bf b78e 6f3f
000000e0: befd e7bf adf3 45be e7b5 0c40 7603 4b3f
000000f0: ddc7 9c3e f5de 02bf d825 8c3f 3f17 d3bf
00000100: 9a85 69bf 5380 0840 5375 fbbf aa38 793f
00000110: 7df2 8abf a289 eb3f 542a 93c0 2c8c a73f
00000120: 3ff9 98be 0bab b7bf 056f 3340 52a9 683f
00000130: 4fd7 f93f 99a4 4ac0 548a acc0 133b cdbf
00000140: a8be 8e3f b28a 02c0 78d0 b4bf 8f90 06bf
00000150: 4ea3 45bf eb72 cbbe 5790 523e 545f a4bd
00000160: d42b 443f ff8f a140 2b40 f53f 49ea 89c0
00000170: d147 29bd c4bf 2f3d 1399 a03f c4c1 2340
00000180: 2481 29c0 f48a a4be 7b3e 233f d1ca 4f40
00000190: e6de 43be f688 5740 99da e13e dcd0 a73f
000001a0: 700d ba3f 3df2 b73f 852f f43f b767 98be
000001b0: 026c 6cbf 9a37 73bf 5903 2bc0 ec57 b6bf
000001c0: 4d0a 4dc0 ec5a 82bf 21fe 42c0 cc4d 2e3f
000001d0: 80cd f03f b660 fbbf eb9b 56c0 c22e 97bf
000001e0: e5d5 25c0 61cc 0340 4932 8f40 4af0 5640
000001f0: abd3 3c40 9ca4 01be 6084 efbd 6872 ae3f
00000200: 8a4c 30bf 37e4 e2bf f908 ec40 2e00 aebf
00000210: ce0d aebf 6ada 75c0 110f 55bf 703f 1cc0
00000220: b321 853e d865 1a40 d8d7 2e3f 1c4c 0c3e
00000230: a197 2ec0 1a0c 81c0 600a 9bbf 0058 3b40
00000240: 7506 9a3f 6a21 eabe 6fda 88c0 d4e3 ae3f
00000250: ab2a fe3e 3de6 e43d b219 2940 768f 0f40
00000260: 74f8 963f 9e9d 0ac0 d82d 78c0 beb9 10c0
00000270: 9df2 ac3f b78b 06c0 f04b 57c0 35db c9bf
00000280: a051 3a40 67cd ef3f 93d4 04c0 21de 4340
00000290: 61c4 1740 34d2 2040 df57 95bf d7af 373f
000002a0: 2cf7 12be 4891 0840 0497 b8bf c629 993f
000002b0: 5ba8 afbf 9546 893f ecca 1d40 c8a6 8abd
000002c0: a3b1 df3f 1d31 303f 9066 813e ba33 2ebe
000002d0: 1873 f2bf 5f9a 8cbf 2f25 9a3f 71ff 36bf
000002e0: 6960 c83f c61d 693e 0764 a2c0 1dcd 243e
000002f0: c8d1 07bf 1e82 b33f 220e 883f fff6 0e40
00000300: d281 fe3f aaf3 0bbe 637c 883e 38be 6e40
00000310: d462 cabf 450f 39be 6ba5 78bf 7955 8dbd
00000320: cace 27bf df98 d23e e8de de3e 7e69 b4bc
00000330: a602 1abe e45b ee3e 4d13 a53f 4e46 563f
00000340: 4734 7040 06f1 463f bf5f 083f 0725 603f
00000350: 75aa bb3e dadb 50be 42cf b53f 0393 95be
00000360: 09f6 4bbe f71a 2b3f d36a f33e bcf4 78bf
00000370: 1ae8 bfbe 44f0 d9c0 e672 0d40 4fbc 79c0
00000380: 74c2 aa3e e183 32bf 55a3 1cc0 914f ce3f
00000390: b2fd 513f 94f9 aabf b0fe 0f40 e10e 553e
000003a0: c8c6 8dc0 ba38 3140 86a3 8c40 5515 71c0
000003b0: 15da d93f 0f43 cac0 fb9f f7be 18fd b53e
000003c0: 3452 b2bf ccba bd3e 95f2 373f 7763 b5bf
000003d0: da40 6fc0 d25b 11c0 0ecc 84c0 641a b8c0
000003e0: 64f1 f8be 98f0 f53e b953 0fc0 44f7 7a40
000003f0: 3ee2 c1bf dbaf 943f 8844 9bbf 1b2f ffbf
4.1505146 -1.69421 -2.9749687 -0.4467732 0.3258424 -0.24740534 0.5045162 1.4250876
1.0194262 0.37513235 -1.0245414 -1.6461931 -0.19605887 4.7178154 1.6290631 1.4910921
1.5465149 -0.07176532 -0.26051497 1.414748 -1.1343704 -0.7229985 0.19503325 2.649447
1.241895 1.4697058 2.6145 -0.09745973 -1.756946 2.1974454 0.8003 0.6894266
-0.85933554 1.308647 0.9591252 0.8927433 -0.30476612 0.43659976 -0.05807526 3.8772442
-0.4398927 0.48600322 -1.0391945 0.3580759 -0.95143086 -0.11183825 0.32186437 -0.7806995
-1.0677124 -1.5668094 0.22768877 1.2395896 0.586466 -0.03831119 -0.9752202 0.9357714
-1.8124311 -0.19331236 2.1986024 0.79302156 0.30621234 -0.51121455 1.0949049 -1.6491469
-0.91219485 2.1328323 -1.964518 0.9735209 -1.0855252 1.8401377 -4.598917 1.3089652
-0.2987766 -1.4349073 2.803651 0.9088336 1.9518832 -3.1662962 -5.3918858 -1.6033653
1.1151934 -2.0397153 -1.412612 -0.5256433 -0.7720231 -0.39736113 0.20562874 -0.08025995
0.76629376 5.0488276 1.9160208 -4.3098493 -0.041328255 0.04290749 1.2546715 2.5587015
-2.648507 -0.32137263 0.6376721 3.246754 -0.19127998 3.3677344 0.4411209 1.3110614
1.4535351 1.43708 1.9077002 -0.29766628 -0.92352307 -0.95006716 -2.6720793 -1.4245582
-3.2037537 -1.0183997 -3.0467608 0.6808746 1.8812714 -1.9638889 -3.3532665 -1.1811144
-2.59118 2.0593493 4.4748883 3.358416 2.9504192 -0.1266045 -0.116951704 1.3628664
-0.6886679 -1.7725896 7.3760953 -1.3593805 -1.3597963 -3.841456 -0.83226115 -2.441372
0.26002273 2.412466 0.682981 0.13700908 -2.7280047 -4.0327272 -1.2112541 2.927246
1.203322 -0.45728618 -4.2766643 1.3663278 0.49641928 0.11176727 2.6421933 2.2431312
1.1794572 -2.1658702 -3.877798 -2.2613368 1.351154 -2.1022775 -3.3640099 -1.5770022
2.911232 1.8734559 -2.0754745 3.0604327 2.371361 2.5128298 -1.1667441 0.71752685
-0.14352101 2.1338673 -1.4421086 1.1965873 -1.3723253 1.0724665 2.4655104 -0.06770092
1.7476085 0.6882494 0.2527356 -0.1701192 -1.8941374 -1.098461 1.2042598 -0.7148352
1.5654422 0.22765264 -5.0747104 0.1609387 -0.53054476 1.4024084 1.0629313 2.2338254
1.9883368 -0.13667169 0.266574 3.73036 -1.581141 -0.18072231 -0.9712741 -0.06901068
-0.6554991 0.41132256 0.4352944 -0.022022959 -0.15040073 0.46554482 1.2896515 0.83701026
3.7531908 0.7771152 0.53271097 0.875565 0.36653486 -0.20396367 1.4203875 -0.29213724
-0.19918074 0.6683802 0.47542438 -0.97248435 -0.37481767 -6.8105793 2.2101378 -3.9021184
0.3335148 -0.6973248 -2.447469 1.6118032 0.82027733 -1.3357415 2.24992 0.20806457
-4.4305153 2.7690873 4.3949614 -3.766927 1.7019678 -6.320686 -0.48364243 0.35544658
-1.3931336 0.37056577 0.71854526 -1.4170979 -3.7383332 -2.2712293 -4.149909 -5.7532215
-0.48621666 0.4803512 -2.239485 3.921342 -1.5147169 1.1616167 -1.2130289 -1.993625

fc1.bias f4 [64]
00000000: 31fd f8c0 73db 0ac0 1e0e a2bf c0f2 b43e
00000010: 95da a8bf 3fb4 1bc0 0b20 debf 6c19 39c0
00000020: 606a 83bf 68e7 74c0 a789 edc0 ffb6 85c0
00000030: 78ea 85c0 d45a d9c0 a460 55c0 4cc3 c1bf
00000040: 7ac0 2fbf 5ded debd cd8c 1bc1 028a 48c0
00000050: 2ed6 92c0 dea8 aac0 6eb3 2abf ac84 4dc0
00000060: a207 b9bf 5dea b7bf 2cd4 4dbe 8354 9fbf
00000070: fa54 60c0 989c 52c0 d049 a7c0 93fa fec0
00000080: 755c b3be a35c 6bc0 ef95 78bf e212 e5bc
00000090: 7b75 46bf 5985 02c0 4e39 1bc0 f9f3 0f3e
000000a0: cde0 84c0 c3c7 fabf 6cbb 8abf 1d2a 2cc1
000000b0: 970e 31bf 32c9 5ec0 53f6 72c0 c172 46c1
000000c0: 195b cbc0 1b0f 4ac0 cb8c 603f 65cb c9c0
000000d0: c40c 82c0 6b30 02c0 de75 87bf 74d2 d6bf
000000e0: 4821 543f 8abd 9ec0 9f94 543f bd4c 9dc0
000000f0: 5bbd 46c1 7195 9dc0 fc9e edbf 80bc 15be
-7.780907 -2.169644 -1.2660558 0.35341454 -1.3191706 -2.4328763 -1.7353529 -2.8921766
-1.0266838 -3.826624 -7.4230533 -4.1785884 -4.1848717 -6.7923374 -3.3340235 -1.5137725
-0.6865307 -0.10885117 -9.721875 -3.1334233 -4.588645 -5.3331137 -0.6668004 -3.2112226
-1.4455454 -1.4368397 -0.20100468 -1.2447666 -3.5051866 -3.2908077 -5.2277603 -7.9680877
-0.35031477 -3.677529 -0.9710378 -0.027963106 -0.7752301 -2.039389 -2.4253726 0.14057912
-4.1524415 -1.9592212 -1.0838447 -10.760282 -0.6916289 -3.48103 -3.7962844 -12.403016
-6.3548703 -3.157172 0.87714833 -6.3060784 -4.0640583 -2.0342052 -1.0582845 -1.6782975
0.82863283 -4.960637 0.8303928 -4.9156175 -12.421229 -4.9244924 -1.8564143 -0.14622688

fc3.weight f4 [6, 64]
00000000: 3dd5 b0c0 784b 99bf 722f 063f e46d 3ebf
00000010: 479c e93d 0a42 66bf 6f1d 02bf da5a a2bf
00000020: 708a 183f e13e 45c0 0504 a8c0 1f63 0ec0
00000030: 9bb9 3cc0 6eb2 92c0 6e80 12c0 a6a7 e7bd
00000040: 8be7 cfbe cb31 3c3f 36af d0c0 184e 2d3e
00000050: 4ed1 44c0 5bd7 3ec0 5030 2ebf 0f3e e1bf
00000060: 8d95 cdbe 9b0d 88bf 94ef 78be 257d 87be
00000070: 12a6 a0bf 6db0 93bf e078 96c0 9655 acc0
00000080: 885b ddbe 6c9c 50c0 f8d3 6e3f 2f9b 7c3f
00000090: e58c 04c0 3988 f5be f526 9fbe c974 0e40
000000a0: 344c 48c0 bd60 1f3f fbb4 b5bf 0656 01c1
000000b0: 54b2 adbc 3193 1dc0 a076 03c0 5299 00c1
000000c0: 243b 8dc0 06c1 37bf 80a8 9a3f 4c7c 8fc0
000000d0: 0753 74c0 3a03 b3bf 2e2e 2640 f855 7a3e
000000e0: 5549 5a40 ed27 35c0 3a01 ed3e b1fc 30bf
000000f0: cc77 fac0 1c65 27c0 ee2d cabe d1ee bb3e
00000100: 6d5b bdc0 2020 a5bf b4fa 113f f481 43bf
00000110: f68f 71bd 635b 71bf b6d1 26bf 3857 93bf
00000120: 3a72 e83e eabd 5bc0 2b4d 98c0 5647 e3bf
00000130: 8638 47c0 fb8c a7c0 7376 13c0 e3d8 6bbd
00000140: edca cbbe 6457 403f 550b cbc0 51e1 213e
00000150: e3eb 2bc0 c4ac 51c0 3023 25bf 5e48 c6bf
00000160: 0fc0 e0be fef3 8fbf c5b0 2abe 5d28 acbe
00000170: d463 d8bf 6833 e0bf 4dd1 93c0 5833 a6c0
00000180: cc93 ddbe abb8 7bc0 1522 6d3f 82cb 7e3f
00000190: 57f9 0ac0 7b36 3dbf cb2d bebe 3571 3040
000001a0: 52f8 49c0 86b4 b73d 5b93 babf 1ed4 03c1
000001b0: f595 17be dec8 27c0 3bb3 12c0 cd7c 03c1
000001c0: ee67 95c0 580a 9bbf 2f5a 973f 68f6 a7c0
000001d0: 3bce 82c0 321e b1bf b039 2d40 57ab 95bd
000001e0: 8579 5940 bc61 43c0 0cbd 033f fdc9 18bf
000001f0: b4cf 00c1 6389 50c0 8ab4 bdbe 7ceb 123e
00000200: bdaa 97c0 3df8 80bf 2b65 ed3e fec6 17bf
00000210: d603 0bbf b35b 0ebf 01fc 11bf 312b febe
00000220: 910b 933d 0c5f 4dc0 ae83 a2c0 cd04 34c0
00000230: 56cc 43c0 b2c0 93c0 6862 22c0 4d27 f1bd
00000240: 4486 52bf b260 6b3f 1969 dfc0 e077 8d3f
00000250: 6983 29c0 343c 0dc0 89c4 58bf fc7f debf
00000260: 3056 e0be 521e b5bf 4cf2 e3be 8b08 8cbe
00000270: f4eb 30bf b902 2ac0 1d18 36c0 f3dc abc0
00000280: 0ce7 dabe 2eb6 66c0 1f91 2d3f df95 783f
00000290: cddb e8bf e181 1b3d 20a4 cfbe 4d3e 953f
000002a0: 2108 bebf 8040 acbc b20b 94bf dac4 f6c0
000002b0: 1c8d edbd 6eb2 61c0 745b c7bf 3a44 03c1
000002c0: 2144 90c0 7e35 99bf 8562 7f3f 43df 85c0
000002d0: 6324 4bc0 939d 10bd a675 1840 d9bc 203f
000002e0: 5b77 1c40 1daa 54c0 f0ae 043f 5120 1ebf
000002f0: 7cfd fec0 816a 1ec0 1ab0 cfbe 61f6 0e3e
00000300: 5127 abc0 1188 89bf 084d 0b3f 7a12 2cbf
00000310: 733f 28c0 9402 6abf 1c36 1cbf b342 9bbf
00000320: 639d a53f 4bd1 40c0 8e4e b4c0 8d55 46c0
00000330: 8496 88c0 7b92 8ec0 8947 84bf 50d9 723e
00000340: 0a72 b03d 06ed edbf 0806 c3c0 8726 d4bf
00000350: 17aa 20c0 7b55 20c0 741b 19bf ac8c c9bf
00000360: b399 27bf 249b 4dbf cd02 88bd c591 acbe
00000370: 376b 05c0 13be 8cbf d17d 81c0 2fbc 9ec0
00000380: ebfc 1abf bad6 3dc0 9768 80be ae88 2fbf
00000390: e5e5 15bf a1d4 d63e a6d6 f23f 9f44 783e
000003a0: dd24 33c0 bf58 2b3f 83b0 e1bf 2ae7 b5c0
000003b0: 10ef b4bf c72c d1bf 52ec e7bf 07ad f7c0
000003c0: 2eba 88c0 d29a 45bf c93f 3d3f cc0c 96c0
000003d0: 598e 9cc0 26eb eebf 1d1e fa3f 5ed8 bc3f
000003e0: 528e 7c40 c3e5 56c0 7167 b03e a666 33bf
000003f0: be89 efc0 0258 89bf 6515 a8be 64ea b53e
-5.52603 -1.1976156 0.52416146 -0.7438643 0.11406761 -0.8994452 -0.5082616 -1.2683976
0.5958624 -3.0819628 -5.2504907 -2.2247999 -2.9488285 -4.584281 -2.2890887 -0.11311273
-0.4060634 0.7351348 -6.521388 0.16924322 -3.075275 -2.9818943 -0.6804247 -1.7597064
-0.4015316 -1.0629152 -0.24310142 -0.26462665 -1.2550681 -1.1538216 -4.7022552 -5.3854475
-0.43233895 -3.2595472 0.9329219 0.9867429 -2.0710995 -0.47955492 -0.3108441 2.225878
-3.129651 0.62256986 -1.4195856 -8.083502 -0.021203198 -2.4621089 -2.0541153 -8.037432
-4.4134693 -0.71778905 1.2082672 -4.483923 -3.8175676 -1.398536 2.5965686 0.24446857
3.4107258 -2.8305619 0.46289998 -0.69135576 -7.8271236 -2.6155462 -0.39488167 0.3670564
-5.9174104 -1.2900429 0.5702317 -0.7637017 -0.058975182 -0.9428007 -0.65163743 -1.1510992
0.45399648 -3.4334664 -4.75942 -1.7756145 -3.112825 -5.2359595 -2.3041046 -0.057579886
-0.39803258 0.7513335 -6.3451333 0.15808608 -2.6862724 -3.2761698 -0.64506817 -1.5490835
-0.4389653 -1.1246336 -0.16668995 -0.33624545 -1.6905465 -1.7515688 -4.6192994 -5.1937675
-0.43276823 -3.9331462 0.9263013 0.9952928 -2.1714685 -0.73911256 -0.37144312 2.7569096
-3.1557813 0.08969979 -1.4576219 -8.239286 -0.14803298 -2.621635 -2.2921894 -8.217969
-4.6689367 -1.2112532 1.1824397 -5.248829 -4.0876746 -1.383734 2.706646 -0.07308071
3.398042 -3.0528402 0.5146034 -0.5968321 -8.050709 -3.2583854 -0.37051803 0.14347643
-4.739592 -1.0075756 0.46366248 -0.59288013 -0.5430273 -0.5560867 -0.5702515 -0.49642327
0.071799405 -3.2089262 -5.078574 -2.812793 -3.0593467 -4.6172724 -2.5372562 -0.11775074
-0.82236123 0.9194442 -6.9815793 1.1052208 -2.6486456 -2.2067995 -0.8467489 -1.7382808
-0.43815756 -1.4149878 -0.44520795 -0.27350268 -0.69110036 -2.6564162 -2.8452218 -5.3707213
-0.427544 -3.6048694 0.6779956 0.97103685 -1.8192078 0.03796566 -0.40554905 1.1659638
-1.4846231 -0.02102685 -1.1566069 -7.7115297 -0.1159918 -3.5265155 -1.5574784 -8.204157
-4.5083165 -1.196945 0.99759704 -4.1835036 -3.1740959 -0.035306524 2.3821807 0.6278816
2.4447849 -3.322883 0.51829433 -0.6176806 -7.968443 -2.4752505 -0.40564042 0.13961174
-5.3485494 -1.0744649 0.54414415 -0.67215693 -2.6288726 -0.91410184 -0.61020064 -1.212973
1.2938656 -3.0127742 -5.634589 -3.0989716 -4.2683735 -4.455381 -1.0334331 0.2371571
0.08615501 -1.8587959 -6.094486 -1.6574258 -2.5103815 -2.5052173 -0.59807515 -1.5746055
-0.654689 -0.8031485 -0.06641159 -0.33704963 -2.0846689 -1.0995506 -4.0466084 -4.9604716
-0.6054217 -2.9662309 -0.25079796 -0.6856793 -0.58553916 0.41959098 1.8971756 0.24244927
-2.799125 0.6693229 -1.7631992 -5.6844683 -1.4135456 -1.634179 -1.8118994 -7.7398715
-4.272727 -0.7718936 0.73925453 -4.689062 -4.8923764 -1.8665512 1.954044 1.475353
3.9461865 -3.3577735 0.3445392 -0.70078504 -7.485564 -1.0729983 -0.32828823 0.35530388

fc3.bias f4 [6]
00000000: e3ae 0b41 9e3a 0141 23bd 1541 24a4 0d41
00000010: ee93 0541 9deb 0e41
8.730197 8.076811 9.358676 8.852573 8.348616 8.932523
