models/DQN_SP_1.pth (torch, 7432 bytes, 4 tensors)

fc1.weight f4 [64, 13]
-0.91008705 -0.18032548 -2.7187006 2.3006604 -0.5085698 -1.5537088 0.40565044 0.6561813
-0.2318239 -0.03636841 -0.38392174 -0.19506574 0.60178113 2.930115 0.45530322 1.0856062
-0.7150659 0.41835272 0.21999261 0.4043324 -0.0020275966 0.7191389 0.22799039 0.40049154
0.2951117 -0.79613465 -2.0879955 -1.0098262 0.8445876 -0.91693914 -0.19853176 -1.2993246
-0.7986334 0.34084272 0.48527074 0.018921955 -0.66778415 -0.1013628 -0.69177496 4.113745
-0.5698598 -0.33895454 -0.05171547 -0.12233461 -0.49312392 -0.32858834 0.10225528 -0.09018026
-0.13765788 -0.43124703 -0.02501411 0.37908185 4.2850647 0.2408517 -0.18433197 -0.17661254
0.24444564 0.5286616 -0.078989916 -0.14273761 0.2669274 -0.20988616 0.78228116 0.2401311
0.48060188 -1.5459865 0.69728446 1.2724171 -0.5425506 -1.488064 -1.1357266 -0.44448784
0.33842745 -0.7191934 0.5774251 -0.9228843 1.8574395 -1.2768788 -2.658252 0.2407641
0.16312419 -0.75068915 0.38154787 -2.8582122 0.8448661 -0.9065774 -1.6762819 -1.8753006
1.6084623 -1.7215331 0.18007426 -2.9342752 1.4280224 0.9502259 -1.8904921 -1.0678533
1.272218 -1.4343553 -1.99491 -1.1162015 0.36439946 1.1695235 -2.0552938 -1.5591402
4.3190866 0.35938638 -0.28756997 -0.025323404 -0.27324507 -0.34437147 0.067820884 -0.46325102
-0.04457065 -0.098074175 0.46462977 -0.6438302 0.1648945 -3.7825549 0.17831485 1.7368178
-0.5572749 -0.7452908 -0.9460758 -1.1210778 0.7748854 0.17342168 0.99595666 1.3111715
1.3121289 -0.055827685 0.623932 -0.10123325 1.5840962 -1.6971349 -1.7686411 -1.4982224
-1.3749744 1.6334893 0.7104304 0.58514273 0.4994767 0.19706632 -0.48819587 -0.41909477
0.43734443 2.4570122 -4.9207573 0.6305168 0.39726505 -1.5591459 1.1265234 0.001521903
-0.23895895 -0.7098396 -1.6322798 -0.59814256 -3.8453505 0.39141354 -0.69427484 0.42518938
-0.45233074 -0.6440606 0.893616 -0.3305732 2.0125055 0.09287873 -0.18090944 1.4522074
-0.15233418 -2.6769266 -0.62447083 2.1473324 1.132736 0.45508832 0.888269 0.2824032
-0.08988538 -0.15915379 -0.17140475 0.579871 -0.09138881 -1.1697389 -3.623561 -1.0976633
1.5721611 -0.27117205 0.1783679 0.09314884 0.24692352 -0.32397452 1.2761205 0.36939803
1.0331292 0.20521942 -0.52935934 2.2706087 -0.16924287 -2.5232806 0.2528691 0.42049012
-1.3178172 -0.18162851 0.10095657 -0.6434461 0.21316673 -0.7058104 -1.6121675 -0.766842
0.2211125 -0.4684442 -1.1238135 -0.39280933 -1.727084 1.5566965 -1.2964758 1.0783976
-0.160942 0.49850312 0.27610886 -0.18455595 -1.7078942 -2.5816905 -0.10641066 -3.0534768
0.45899254 1.6467797 -0.02203367 0.060290582 0.37029362 -0.0675581 0.5004656 1.0389919
0.06085698 -0.90246284 0.48829535 -2.0808575 3.4319775 -4.61686 0.17594722 -0.44694334
-0.9550536 -0.89618486 -0.6180394 -0.7636859 -1.2714982 -0.14816321 -3.1487913 -2.085104
-0.09589108 0.4475778 -0.0627733 -1.8517455 0.95924336 -1.7297279 -0.095834516 -1.5408865
00000000: 77fb 68bf 3ea7 38be 31ff 2dc0 053e 1340
00000010: a131 02bf eedf c6bf 6ab1 cf3e 7ffb 273f
00000020: 3f63 6dbe 0bf7 14bd 6491 c4be 50bf 47be
00000030: 540e 1a3f 0187 3b40 811d e93e 25f5 8a3f
00000040: 8f0e 37bf 5432 d63e be45 613e a804 cf3e
00000050: 6de1 04bb 7d19 383f 5076 693e 3a0d cd3e
00000060: e118 973e 7bcf 4bbf b8a1 05c0 fc41 81bf
00000070: e536 583f 86bc 6abf e94b 4bbe 4550 a6bf
00000080: 3d73 4cbf f082 ae3e 6875 f83e 3702 9b3c
00000090: e7f3 2abf 4d97 cfbd 2a18 31bf cda3 8340
000000a0: 55e2 11bf 738b adbe 9ad3 53bd 918a fabd
000000b0: bd7a fcbe bb3c a8be 376b d13d 6eb0 b8bd
000000c0: 30f6 0cbe 69cc dcbe 64ea ccbc 0417 c23e
000000d0: 401f 8940 d4a1 763e 85c1 3cbe ebd9 34be
000000e0: f54f 7a3e 5e56 073f 77c5 a1bd cf29 12be
000000f0: b5aa 883e 66ec 56be 9443 483f ede4 753e
00000100: 7311 f63e e3e2 c5bf 3c81 323f 90de a23f
00000110: 99e4 0abf e278 bebf 7d5f 91bf e993 e3be
00000120: 5d46 ad3e 0f1d 38bf 22d2 133f 2542 6cbf
00000130: 94c0 ed3f c470 a3bf cd20 2ac0 dd8a 763e
00000140: 070a 273e 2a2d 40bf 3e5a c33e f3ec 36c0
00000150: 2549 583f 7515 68bf 6890 d6bf da09 f0bf
00000160: 18e2 cd3f 325b dcbf 6365 383e 2acb 3bc0
00000170: 70c9 b63f 0142 733f a5fb f1bf 6baf 88bf
00000180: 0ad8 a23f f498 b7bf 3659 ffbf b1df 8ebf
00000190: 9192 ba3e f2b2 953f ef89 03c0 e891 c7bf
000001a0: f535 8a40 7e01 b83e 5f3c 93be 0773 cfbc
000001b0: c7e6 8bbe 7551 b0be ade5 8a3d 3d2f edbe
000001c0: b78f 36bd 1ddb c8bd f4e3 ed3e 0ed2 24bf
000001d0: 1bda 283e 6115 72c0 2b98 363e 0c50 de3f
000001e0: 91a9 0ebf 61cb 3ebf 0632 72bf 7a7f 8fbf
000001f0: e45e 463f 7495 313e 04f7 7e3f 78d4 a73f
00000200: d7f3 a73f 92ab 64bd 02ba 1f3f 6153 cfbd
00000210: aac3 ca3f b73b d9bf d562 e2bf c0c5 bfbf
00000220: 29ff afbf 2d16 d13f c4de 353f eacb 153f
00000230: 69bb ff3e c1cb 493e cff4 f9be 9793 d6be
00000240: 9ceb df3e b03f 1d40 d876 9dc0 8d69 213f
00000250: 5366 cb3e 1892 c7bf eb31 903f 977a c73a
00000260: a8b1 74be 0cb8 35bf 8bee d0bf df1f 19bf
00000270: 391a 76c0 5b67 c83e ffbb 31bf 6cb2 d93e
00000280: e597 e7be 28e1 24bf 05c4 643f e440 a9be
00000290: e4cc 0040 3437 be3d 5340 39be efe1 b93f
000002a0: 7efd 1bbe c452 2bc0 52dd 1fbf e56d 0940
000002b0: 7efd 903f 5601 e93e 9965 633f 2797 903e
000002c0: d315 b8bd 36f9 22be ba84 2fbe 6d72 143f
000002d0: 0e2a bbbd 01ba 95bf 6ce8 67c0 3b80 8cbf
000002e0: 933c c93f 10d7 8abe 13a6 363e d2c4 be3d
000002f0: 85d9 7c3e fddf a5be eb57 a33f bd21 bd3e
00000300: 943d 843f 0a25 523e 1884 07bf a751 1140
00000310: 014e 2dbe 6e7d 21c0 0f78 813e 7b4a d73e
00000320: 3cae a8bf d3fc 39be 51c2 ce3d e2b8 24bf
00000330: 6148 5a3e feaf 34bf 815b cebf c24f 44bf
00000340: 516b 623e ebd7 efbe 1fd9 8fbf 4e1e c9be
00000350: 1711 ddbf d541 c73f ebf2 a5bf ef08 8a3f
00000360: fbcd 24be cd3b ff3e 245e 8d3e 3cfc 3cbe
00000370: 479c dabf 6b3a 25c0 d5ed d9bd 2a6c 43c0
00000380: 1201 eb3e adc9 d23f f57f b4bc 42f3 763d
00000390: 2097 bd3e e75b 8abd 831e 003f b0fd 843f
000003a0: 2b45 793d ce07 67bf d901 fa3e c52c 05c0
000003b0: 85a5 5b40 51bd 93c0 822b 343e c2d5 e4be
000003c0: 657e 74bf 5f6c 65bf d537 1ebf eb80 43bf
000003d0: 74c0 a2bf 19b8 17be cc85 49c0 5872 05c0
000003e0: 8b62 c4bd eb28 e53e 4a8f 80bd ff05 edbf
000003f0: f990 753f b967 ddbf e344 c4bd c53b c5bf

fc1.bias f4 [64]
-3.445946 -1.9848704 1.5699455 -1.8142457 -1.7819334 0.13091104 -0.29167613 -1.873565
-2.4676576 -0.91006273 -1.4342841 -1.0411602 -0.9640758 -3.0861712 -0.27580464 -3.8773086
-1.6616008 -0.32028082 -3.834858 0.894459 -0.088708065 -2.6450598 -1.1585193 -0.6704748
-1.7963389 0.33307955 -1.3379921 2.2975032 0.7333865 -0.9862098 -0.44229752 -3.436679
-2.170148 0.4286735 -2.2393014 -1.3719157 -0.3823009 -2.5951877 -1.5325359 3.6606903
-1.2974442 -0.52557045 -2.713379 -4.5086093 -1.1044366 0.3421696 -0.3769466 -5.9147754
-2.014277 -0.37350428 -2.0116012 -1.177085 0.6115859 -0.17445831 -1.2761916 -0.83352554
3.9948032 -1.9713397 -2.5550084 -0.72134674 -5.810591 0.52551997 -0.6567624 -1.7406267
00000000: 618a 5cc0 3c10 febf f9f3 c83f 3439 e8bf
00000010: 6516 e4bf 8b0d 063e 9356 95be fad0 efbf
00000020: 1aee 1dc0 dff9 68bf 9f96 b7bf bd44 85bf
00000030: accd 76bf d483 45c0 4436 8dbe d325 78c0
00000040: 56af d4bf d9fb a3be 506e 75c0 44fb 643f
00000050: 93ac b5bd a948 29c0 5c4a 94bf 3da4 2bbf
00000060: 6fee e5bf 6789 aa3e 5343 abbf 4b0a 1340
00000070: 38bf 3b3f 3f78 7cbf d274 e2be 8cf2 5bc0
00000080: b4e3 0ac0 187b db3e b750 0fc0 ef9a afbf
00000090: f2bc c3be 8e17 26c0 232a c4bf c048 6a40
000000a0: a712 a6bf c98b 06bf 00a8 2dc0 8746 90c0
000000b0: 2e5e 8dbf db30 af3e 25ff c0be d745 bdc0
000000c0: eae9 00c0 f43b bfbe 13be 00c0 b9aa 96bf
000000d0: e590 1c3f 33a5 32be 3f5a a3bf ee61 55bf
000000e0: dbaa 7f40 dc54 fcbf 4285 23c0 2eaa 38bf
000000f0: 5df0 b9c0 7a88 063f 9521 28bf dbcc debf

fc3.weight f4 [6, 64]
-2.0249002 -0.3970315 1.0123514 -1.669189 -1.2881471 0.13885519 0.6038637 0.13871863
-1.3556017 0.07643189 -0.46995184 0.09953571 -0.35400376 -2.2063303 -0.5395081 -2.4671803
-0.47680393 0.14623761 -2.309116 0.57917076 0.18528989 -0.8020646 -0.8880714 0.030472085
-0.99681747 0.30785722 -0.8997097 1.1742094 0.82778317 0.09627899 -0.39755479 -1.5979391
-0.60620767 1.0759557 -1.6604043 -0.4481678 -0.0973972 -0.9937314 -0.5948121 2.039332
-0.3219466 0.001142049 -1.7750164 -4.1644573 -0.33429056 0.4050949 0.35832563 -3.6502848
-0.6404245 0.41447407 0.019466445 -1.4350829 1.2747166 0.32053322 -0.25971645 -0.15779273
2.2399654 -0.6279641 -0.25823146 -0.07973643 -3.3802862 0.78754294 0.12438958 0.23492986
-2.2918074 -0.383437 0.9943274 -1.6619893 -1.2604297 0.12140829 0.6461771 0.237542
-1.335812 0.16550706 -0.493461 0.08487594 -0.24209638 -2.7159917 -0.53659195 -2.5612807
-0.6175688 0.11791201 -2.2485986 0.58367664 0.16840002 -0.80351555 -0.7736464 0.042269323
-1.0109912 0.31969172 -0.90458786 1.1839254 0.8336523 0.15076423 -0.59213585 -1.7581445
-0.5902968 1.201021 -1.6083382 -0.42855173 0.16962127 -1.058316 -0.6582812 2.049668
-0.32476404 -0.03991672 -1.9553546 -4.182041 -0.3143956 0.53738576 0.3379544 -3.9459255
-0.86477286 0.54322624 0.1254229 -1.4754199 1.2258515 0.4063775 -0.23166828 -0.19371197
2.230148 -0.62433565 -0.1724384 0.021685993 -3.5527117 0.8704643 0.14772524 0.23713419
-1.7937869 -0.6926805 1.0874035 -1.4870958 -1.0190262 -0.12896036 1.1992148 -1.1445814
-1.5614047 0.5977706 -0.1522589 -0.38576582 -0.2760304 -0.50730795 -0.85915416 -2.667403
-1.0310482 -0.23130612 -2.0768619 0.33089072 0.36227533 -0.31744203 -0.8537108 -0.51434374
-1.4491681 0.32669073 -0.55694956 1.2900773 0.6618298 1.203822 -0.78925025 -1.5823429
-0.57247823 0.44174558 -3.192768 -0.93272364 -0.011909087 -0.37041393 -0.099229045 2.0825644
-0.6058048 0.73313725 -2.230427 -3.2741604 -0.41992685 0.7540178 0.6391869 -3.6891115
-0.6372131 0.19702062 0.0550178 -1.0771922 1.7978452 0.8148415 -0.477021 0.17849919
2.2232468 -1.2412771 0.6184182 -0.793776 -3.5537376 0.95022863 0.40382075 0.01847327
-2.4545403 -0.41793972 0.54390943 -1.3808397 -1.5253042 0.64977986 -0.2750739 1.8285513
-1.9491045 -0.5413368 -0.64322615 0.6331343 -0.7696344 -1.9790539 0.63554645 -2.3215282
-0.097918145 0.78289163 -1.7254138 0.83175707 -1.4062678 -1.352805 -0.18850055 1.0296967
-0.19808844 0.30535632 0.032787554 1.2170302 0.44204837 -0.14515224 -0.5810636 -1.4964433
-0.6121387 0.22827956 -2.0294576 -0.0025146909 -0.06903502 -1.7567536 0.78341055 2.085716
-0.45469192 -0.3680583 -1.6991676 -1.48302 -0.41152123 -0.24929841 0.25917977 -3.4484935
-0.10717982 0.5308807 -0.08652541 -1.7499013 1.0211172 0.16132395 0.2017584 0.18627663
2.2855127 -2.124826 -0.41050133 -0.2691047 -3.1530602 0.3508302 0.43558618 0.12660332
00000000: f797 01c0 b647 cbbe bb94 813f fca7 d5bf
00000010: 01e2 a4bf 0e30 0e3e d096 1a3f 420c 0e3e
00000020: 5b84 adbf 5388 9c3d 879d f0be 61d9 cb3d
00000030: fb3f b5be 8434 0dc0 341d 0abf 48e6 1dc0
00000040: a51f f4be 50bf 153e 8ec8 13c0 8944 143f
00000050: a2bc 3d3e 1b54 4dbf a658 63bf 98a0 f93c
00000060: 6e2f 7fbf 769f 9d3e 6053 66bf 7e4c 963f
00000070: 99e9 533f eb2d c53d 4d8c cbbe 4589 ccbf
00000080: 6d30 1bbf ebb8 893f 2188 d4bf 4076 e5be
00000090: 2f78 c7bd 2e65 7ebf 9b45 18bf 6a84 0240
000000a0: 2fd6 a4be ceb0 953a bd33 e3bf 3c43 85c0
000000b0: 2228 abbe 9968 cf3e 7576 b73e 449e 69c0
000000c0: dcf2 23bf f235 d43e 1878 9f3c ccb0 b7bf
000000d0: ea29 a33f ee1c a43e 8ef9 84be 6b94 21be
000000e0: 985b 0f40 41c2 20bf ea36 84be da4c a3bd
000000f0: 9c56 58c0 6a9c 493f f7bf fe3d 7491 703e
00000100: f9ac 12c0 db51 c4be 3e8c 7e3f 11bc d4bf
00000110: c355 a1bf e9a4 f83d dd6b 253f 363e 733e
00000120: e3fb aabf af7a 293e eca6 fcbe 70d3 ad3d
00000130: 1de8 77be cfd2 2dc0 175e 09bf 06ec 23c0
00000140: fd18 1ebf da7b f13d 0ae9 0fc0 d56b 153f
00000150: 0e71 2c3e 32b3 4dbf b10d 46bf 9922 2d3d
00000160: 2968 81bf a2ae a33e 1293 67bf de8a 973f
00000170: 3d6a 553f f061 1a3e 3796 17bf e10a e1bf
00000180: b11d 17bf 0ebb 993f 07de cdbf 226b dbbe
00000190: 33b1 2d3e e676 87bf 1e85 28bf c32d 0340
000001a0: 7947 a6be b77f 23bd 0f49 fabf 48d3 85c0
000001b0: 76f8 a0be 1d92 093f 5c08 ad3e 0b8a 7cc0
000001c0: c161 5dbf e010 0b3f dc6e 003e 8fda bcbf
000001d0: b4e8 9c3f b610 d03e 733a 6dbe 6e5c 46be
000001e0: bfba 0e40 76d4 1fbf b193 30be d3a6 b13c
000001f0: a15f 63c0 c0d6 5e3f 4945 173e 4ed3 723e
00000200: cf9a e5bf 8253 31bf 0a30 8b3f 2859 bebf
00000210: 736f 82bf 2f0e 04be df7f 993f a581 92bf
00000220: 1cdc c7bf 7e07 193f c2e9 1bbe 1983 c5be
00000230: db53 8dbe efde 01bf 87f1 5bbf bbb6 2ac0
00000240: 63f9 83bf 83db 6cbe 4eeb 04c0 826a a93e
00000250: 277c b93e c387 a2be ca8c 5abf 08ac 03bf
00000260: 577e b9bf 0244 a73e 3f94 0ebf 4121 a53f
00000270: ae6d 293f d716 9a3f 4e0c 4abf 368a cabf
00000280: ef8d 12bf 7a2c e23e 5056 4cc0 fac6 6ebf
00000290: 551e 43bc e5a6 bdbe 9938 cbbd bc48 0540
000002a0: 0616 1bbf e2ae 3b3f 51bf 0ec0 d88b 51c0
000002b0: a700 d7be 4f07 413f c1a1 233f 671a 6cc0
000002c0: 6620 23bf c6bf 493e 585a 613d 6fe1 89bf
000002d0: cb1f e63f 7499 503f 193c f4be 7ec8 363e
000002e0: ad49 0e40 2be2 9ebf a850 1e3f e734 4bbf
000002f0: 7070 63c0 2f42 733f 98c1 ce3e 4155 973c
00000300: 3017 1dc0 32fc d5be a63d 0b3f 5bbf b0bf
00000310: 2b3d c3bf f957 263f 7cd6 8cbe f80d ea3f
00000320: 427c f9bf 0c95 0abf 78aa 24bf 1715 223f
00000330: c306 45bf a351 fdbf 2cb3 223f eb93 14c0
00000340: 4f89 c8bd 966b 483f 5cda dcbf 08ee 543f
00000350: 9500 b4bf b728 adbf 4a06 41be 1acd 833f
00000360: b2d7 4abe aa57 9c3e 3e4c 063d a5c7 9b3f
00000370: 2a54 e23e caa2 14be 96c0 14bf 748b bfbf
00000380: 1fb5 1cbf 1ec2 693e a2e2 01c0 83cd 24bb
00000390: 3c62 8dbd 4ddd e0bf 988d 483f 5f7c 0540
000003a0: 61cd e8be 2372 bcbe 537e d9bf 99d3 bdbf
000003b0: e9b2 d2be 1548 7fbe 36b3 843e 1eb4 5cc0
000003c0: 1881 dbbd cce7 073f 3c34 b1bd c4fc dfbf
000003d0: f8b3 823f 1b32 253e c199 4e3e 4dbf 3e3e
000003e0: d745 1240 26fd 07c0 3b2d d2be 17c8 89be
000003f0: bdcb 49c0 04a0 b33e 2705 df3e 4da4 013e

fc3.bias f4 [6]
3.6561742 3.2093973 3.9104254 4.062489 3.3935153 3.5470214
00000000: c2fe 6940 c466 4d40 6944 7a40 e9ff 8140
00000010: 5b2f 5940 6602 6340
